models/model-test.pth (torch, 78645 bytes, 27 tensors)

weight f4 [8, 1, 3, 3]
000000 ba 44 ea be c4 d4 35 3f 08 bf 3e 3f 56 88 0a 3f
       -0.4575556 0.7102778 0.7451024 0.5411428
000010 50 03 c6 3f 36 b6 bf bf d3 1b b3 bf f2 5c 5b be
       1.5469761 -1.4977481 -1.3992866 -0.21422175
000020 87 72 7a bf 03 20 15 3f 64 08 79 3e ee dd 9a bd
       -0.97831005 0.5825197 0.24319607 -0.07561861
000030 97 ae b2 3e 9e bd 11 3f 0e 49 6b 3e 11 d2 41 bf
       0.34898826 0.5692996 0.22977087 -0.7571116
000040 9d 47 ba be 55 b9 e7 bc 17 e6 07 40 86 13 ad 3e
       -0.36382762 -0.028286615 2.1234186 0.33803958
000050 eb 4d 9a 3e 21 d6 66 bc 75 c3 1a bf 96 64 0c bd
       0.30137572 -0.014089138 -0.60454494 -0.034275614
000060 c9 7d 32 c0 7a 23 0f be 63 54 b5 3e 0a 08 ac bf
       -2.7889273 -0.13978377 0.35415944 -1.3439953
000070 b4 45 68 3f ff 13 3f 3f dd 0f 68 bf 36 36 de be
       0.9073136 0.74639887 -0.90649205 -0.43400735
000080 27 b1 da be 50 8d 82 3f 9c 66 8b 3f 1e c0 bc 3e
       -0.42713282 1.0199375 1.0890689 0.36865324
000090 03 fd a1 be 07 d5 4b 3e c4 0b 97 3e 29 31 86 bb
       -0.31638345 0.19905482 0.29501164 -0.004095216
0000a0 fe 61 f9 3e 20 2a 55 3f fb 8e 0b bf 19 cc 24 bf
       0.48707575 0.832674 -0.54515046 -0.6437393
0000b0 17 d9 56 3f 3b 20 53 bf 9d 82 1a 3f 31 5c d0 3e
       0.83925 -0.82471055 0.6035555 0.40695336
0000c0 ae 11 61 3f 9c d8 6c bf 68 d8 9a 3e 55 18 e3 be
       0.879176 -0.9251802 0.3024323 -0.443545
0000d0 e1 e9 14 c0 ae 2e e0 3e 53 dc a2 3f 5d ac 8f bd
       -2.3267748 0.43785614 1.2723488 -0.070152976
0000e0 02 07 fb bd ac 4c 56 bf ec 05 25 3f 86 64 30 be
       -0.12257196 -0.8371074 0.6446216 -0.17225847
0000f0 69 06 ad bf a2 0a a5 3f ce 2b 6c bf 98 34 13 3f
       -1.3517581 1.289387 -0.9225434 0.57502127
000100 f2 ad f1 be 65 bb e3 be 1b 33 e1 be a5 06 8e be
       -0.47203022 -0.44478908 -0.43984303 -0.27739444
000110 96 95 28 c0 e5 9a 7f bd 6c eb e1 3f 6b e4 70 3e
       -2.63413 -0.06240358 1.764997 0.23524635

weight f4 [8]
000000 05 3b e6 3f fe 78 7b 3f 12 ea fd 3f e3 15 7b 3f
       1.7986761 0.98231494 1.9837058 0.9808027
000010 73 6b 51 3f c5 72 fc 3f c4 04 c7 3f 4c e8 c6 3f
       0.8180458 1.9722525 1.5548329 1.5539641

bias f4 [8]
000000 19 e1 70 bf 33 1f 32 bf f3 7e 19 bf 34 49 91 be
       -0.9409347 -0.69578856 -0.59959334 -0.28376162
000010 7b 5d 95 be d9 87 3d bf cb f2 a6 bf 84 49 10 be
       -0.29172882 -0.7403541 -1.3042845 -0.14090544

running_mean f4 [8]
000000 ce 75 8e be b4 a8 35 3e 32 8e 16 be 45 0b 8e 3e
       -0.27824253 0.17740136 -0.1470268 0.27742973
000010 d3 0d 92 3e 4b c0 fe be d1 54 a3 bd 5a 26 da be
       0.28526172 -0.49756083 -0.07975162 -0.42607385

running_var f4 [8]
000000 5c ca 8c 3c a5 66 b4 3b 21 f2 b7 3c a6 df 4b 3c
       0.017186336 0.0055054002 0.022454323 0.012443459
000010 95 4d 38 3c f6 af 05 3d ff 77 92 3b c0 8b e2 3c
       0.011248966 0.032638513 0.004469871 0.027654529

weight f4 [8, 8, 3, 3]
000000 4a dd 25 3e cc ba a8 3e 4f 78 43 3e f8 5c 83 bf
       0.16197696 0.32955015 0.19088863 -1.0262747
000010 c6 09 ac be b8 43 52 3e b6 f4 17 bf 53 ff b8 be
       -0.33601207 0.20533645 -0.59357774 -0.36132297
000020 35 d7 74 bf 1e 42 2c 3e 29 4e 8d 3e 37 85 e3 3d
       -0.9564088 0.16822097 0.27598694 0.11109393
000030 de da a9 3d 8f bd 3a be 70 4e a6 be a9 cd 10 be
       0.08293699 -0.18236373 -0.32481718 -0.14140953
000040 59 1f 65 be 38 03 f3 bd 06 20 e4 3e fd 5f 26 bf
       -0.2237524 -0.11865848 0.44555682 -0.64990216
000050 0d 17 92 be bc c6 2a be 02 73 a4 be b0 e5 10 3e
       -0.2853321 -0.16677374 -0.32118994 0.14150119
000060 c2 c2 97 bf 32 d2 ea be 7e ad 5b be 26 37 49 be
       -1.185631 -0.4586349 -0.21452901 -0.19649944
000070 91 56 32 be fc 47 19 bf 48 7b 26 be 89 ad 40 bc
       -0.17415835 -0.59875464 -0.16257966 -0.011760124
000080 82 0d 66 be af f9 0e 3f c1 78 62 bf b4 10 1b be
       -0.2246609 0.55849737 -0.88465506 -0.1514309
000090 99 01 0f 3e e2 24 ad bd d8 86 1f bf 06 ea 93 be
       0.13965453 -0.084543005 -0.6231513 -0.28889483
0000a0 cf db d1 3c 56 cc 9e be ea 15 dd bd 9d 03 2b 3f
       0.025617508 -0.3101527 -0.107951954 0.6680239
0000b0 08 24 00 bd 37 a3 55 3e b4 90 f3 3e e5 f3 1e be
       -0.031284362 0.20863043 0.47571337 -0.15522726
0000c0 c3 c8 0f 3f 7f 92 da be 72 69 3a 3d 36 b6 69 bf
       0.56165713 -0.42689893 0.045510717 -0.91293657
0000d0 e0 75 33 bf 4f c2 45 3f da 15 5f bd d8 d7 09 bf
       -0.7010174 0.77249616 -0.0544642 -0.53844976
0000e0 5e f9 0b 3e a6 56 2a bd 7e 12 bd bd 57 ca 4c bf
       0.13669345 -0.04158654 -0.09232043 -0.79996246
0000f0 c1 1b 35 bf b1 cc 5f be 2c 7c 9e be 92 b5 36 bd
       -0.70745474 -0.21855427 -0.3095411 -0.044606753
000100 10 57 01 3f 34 29 8d be d4 32 73 bf 95 f5 9d 3e
       0.5052347 -0.27570498 -0.9499943 0.30851427
000110 7e 2a 84 3e 43 ea 25 3e 63 6e a0 be 0d de 91 be
       0.2581367 0.16202645 -0.31334218 -0.28489724
000120 a8 49 f6 be 23 13 57 3d eb 4f e8 be 9b 0d 1d be
       -0.4810307 0.052508485 -0.45373473 -0.15337221
000130 f1 0a b6 be 5a 9c 71 3e 84 61 52 be 24 af ac 3e
       -0.35555223 0.235948 -0.20545012 0.33727372
000140 6d 2f a5 3e f3 5a ea 3d ff a1 41 3e ac ef 1e 3c
       0.32262745 0.114431284 0.18909453 0.009700697
000150 49 7b 43 3d 3a 50 f8 bd 6a d7 49 3d 1b 4f d0 3d
       0.047724996 -0.12124677 0.0492777 0.10171338
000160 be d1 75 be b7 aa f7 be 61 5b 84 3d 8e d5 be be
       -0.24005792 -0.48372433 0.06462742 -0.37272304
000170 4e aa 75 be 3e c9 4d bd bb 99 20 3d de 2e e1 3e
       -0.23990747 -0.050240748 0.03920911 0.4398107
000180 5c 4d 5a bf 25 ff 07 bf 1d 98 88 3f dd 3b 70 3d
       -0.8527429 -0.53123695 1.0671421 0.05865084
000190 4d 07 f3 be cd 9f e4 be bf eb 1b be f4 fb 8c be
       -0.47466508 -0.44653168 -0.15226649 -0.27535975
0001a0 25 cc 3f bf 01 83 ce 3e 47 14 b3 bd 2b 6b ca 3e
       -0.74920875 0.40334323 -0.08744102 0.39534888
0001b0 43 6e 27 3e 55 17 0f bd 6c 04 c2 be 58 f4 09 3d
       0.16350655 -0.03493436 -0.37894 0.03368029
0001c0 d0 a3 fe be 9e 4e 7e bb 28 8e 91 3d 8a 92 40 bf
       -0.49734354 -0.0038804184 0.07107192 -0.752236
0001d0 9a 73 3a be 9f d4 0f 3f 9b ca 7d 3f 78 57 89 bf
       -0.18208161 0.5618381 0.99137276 -1.0729818
0001e0 48 61 19 bf ea cf eb 3e 29 74 b4 3d 0d d3 26 3e
       -0.59914064 0.46057063 0.08811218 0.16291447
0001f0 e5 80 45 3e 29 e2 3e be 30 18 9c be 0e e6 ee be
       0.1928745 -0.18640961 -0.30487204 -0.46659893
000200 19 ee 00 3e 4a 67 ab 3e a5 f9 a8 be 9d 1a db 3e
       0.12590827 0.3347724 -0.33002964 0.42793742
000210 87 04 b2 be ac c9 83 3d 83 c5 2b 3f d7 30 84 be
       -0.3476908 0.0643495 0.67098254 -0.25818512
000220 89 a3 35 be 17 26 f7 3e 8f 3d d1 3d c3 04 aa bf
       -0.17738165 0.48271248 0.102168195 -1.3282703
000230 a1 a8 97 be 86 95 f1 be 57 84 86 3f 33 d9 f9 3d
       -0.2962084 -0.4718439 1.0509137 0.121996306
000240 c2 6c 26 be 3a 09 cb 3e 73 6d 29 3d 47 71 fd be
       -0.16252425 0.39655477 0.041364145 -0.49500486
000250 e9 38 23 3f 20 c5 34 3e 83 a8 99 3e 79 f1 d2 bc
       0.63758713 0.17653322 0.30011377 -0.025749909
000260 6d 8e a1 be ef 05 0f 3e 39 a3 6e bd 55 89 d3 bd
       -0.31553975 0.13967107 -0.05826113 -0.103289284
000270 44 73 cf bd 65 57 3e be 29 7e 48 be b5 a3 86 be
       -0.10129407 -0.18588026 -0.19579376 -0.26296774
000280 91 ad ab be f2 99 b5 bc 7b 3f 4b be b6 a5 41 bd
       -0.33530858 -0.022168133 -0.19848435 -0.047277175
000290 fa ab e1 be 49 29 17 3e 20 d5 5a 3e 32 a8 f7 3c
       -0.4407652 0.14761843 0.21370363 0.030231569
0002a0 4d 9e 41 3e 31 bf 55 bf 4b 30 57 3d 21 c2 8e be
       0.18908043 -0.8349486 0.05253629 -0.27882484
0002b0 43 b0 84 be 00 8a d3 be 34 c9 2a bf a2 07 44 3e
       -0.25915727 -0.41316223 -0.6671326 0.19143537
0002c0 32 25 35 bc 1c 70 92 3d bf 5c 58 be c1 23 05 bf
       -0.011056231 0.071502894 -0.2112913 -0.5200768
0002d0 d8 db 28 bd 85 f8 28 be 82 76 6b 3a 8a b5 ea be
       -0.041225284 -0.16501053 0.00089821976 -0.45841628
0002e0 92 51 49 bd c5 e5 a9 bc e1 27 12 be 32 a0 4c be
       -0.049150057 -0.020739445 -0.14273025 -0.19982985
0002f0 75 85 84 be 4c 51 3a 3e 55 9e 75 bf b7 b4 49 bc
       -0.2588307 0.18195075 -0.9594472 -0.012311152
000300 13 c7 57 3f 85 d6 10 bb d7 ac ff 3e cf 8c 82 3e
       0.8428814 -0.002210052 0.49936554 0.25498053
000310 50 80 b8 be aa a7 c5 be ac 4c 13 bd f9 15 d3 3e
       -0.36035395 -0.3860448 -0.035961792 0.412277
000320 26 12 f1 bc e9 25 b6 be c1 65 9b be 4e fb 2f 3f
       -0.0294276 -0.35575798 -0.3035107 0.68742836
000330 1f 55 8c be e1 14 e9 be 1b 4d 58 bf b6 97 26 3f
       -0.27408692 -0.45523742 -0.84492654 0.6507524
000340 fd 76 f7 3e d1 c4 c3 3d 54 0d e6 3d 89 31 74 3f
       0.48332968 0.09559024 0.11233011 0.95388085
000350 a5 78 2b bf 6e 07 9a 3e 90 b1 08 be 3d 8c ef be
       -0.66980964 0.30083793 -0.13348985 -0.4678668
000360 e4 95 58 3e 9e 6b 3a bd 28 f9 83 be ef 3a 24 3d
       0.21150929 -0.045512788 -0.2577603 0.040095266
000370 29 f9 65 3e 19 24 64 bf 26 cc 8c bf cd 0b 25 3e
       0.22458328 -0.8911758 -1.0999801 0.16117783
000380 49 33 54 3f ad 9e aa 3c 63 65 9a bc 65 9c 07 3e
       0.82890755 0.020827616 -0.018847173 0.13243254
000390 09 8e 86 3d bf 3f 8f 3e 91 77 18 3d 83 73 91 be
       0.0657006 0.27978322 0.037223402 -0.2840844
0003a0 09 a6 7f be 57 dd d7 bd 8b b7 cc 3e 44 84 8a be
       -0.24965681 -0.10540264 0.39983782 -0.27054036
0003b0 2f e2 96 be 97 72 59 bf 85 3d ac 3d 5e 06 ff bd
       -0.2946944 -0.84940475 0.084101714 -0.12452386
0003c0 17 bc 1f bf 76 2d 1b 3d 66 0a 0d be c7 c2 be bd
       -0.6239638 0.03788515 -0.13773498 -0.093144946
0003d0 6c 19 52 3f e9 51 88 be 37 aa 47 be 74 3e 30 be
       0.8207004 -0.26624992 -0.19498526 -0.17211324
0003e0 08 0d 21 bf 18 62 69 3e 40 5b 0a 3f 4b 43 0b 3e
       -0.6291051 0.22791326 0.54045486 0.13599889
0003f0 e6 53 8f be 06 8e d7 3e 61 df bd be 3a 9f 80 be
       -0.27993697 0.42100543 -0.37084487 -0.2512148

weight f4 [8]
000000 92 f1 d8 3f e9 d7 bf 3f 5e f8 c3 3f 68 84 90 3f
       1.6948721 1.4987766 1.5310171 1.1290407
000010 17 f7 b5 3f 04 a9 cd 3f e4 2e a3 3f 0a 51 b4 3f
       1.4216031 1.6067204 1.2748685 1.4087231

bias f4 [8]
000000 07 fc 51 3e e5 5a bf be a5 4a bd 3e 2d 42 af 3e
       0.20506297 -0.37374035 0.36971012 0.34230176
000010 be 78 27 bf 0e 7f 74 bf b9 17 d8 bd 8d a1 88 be
       -0.6541861 -0.9550637 -0.105514 -0.26685753

running_mean f4 [8]
000000 45 48 33 c0 a9 4e aa bf f1 6b 81 be b6 c1 93 bf
       -2.801286 -1.3305255 -0.25277665 -1.1543491
000010 e0 32 0d 3f 8a eb ec bd b1 dc 99 bf 50 27 c5 3f
       0.55155754 -0.11568363 -1.2020475 1.5402622

running_var f4 [8]
000000 2e 74 a9 40 11 1a 8a 40 86 f0 96 40 4f 59 39 40
       5.295432 4.315682 4.716861 2.896076
000010 20 a4 d8 3f e3 22 ab 40 17 41 01 40 7f 0d cd 40
       1.6925087 5.3480086 2.0195978 6.4078975

weight f4 [8, 8, 3, 3]
000000 5f 27 c6 3e a9 91 62 3e ab b7 0c bf 0f 4a 35 3c
       0.38701913 0.22125877 -0.54967755 0.01106502
000010 54 0d e4 3c 33 c5 8f bf ad b9 1e 3e bd 6e d2 be
       0.027838387 -1.1232055 0.15500517 -0.41100112
000020 6c 62 a1 3e ab 27 6c bd 04 51 c2 3e c6 d8 b7 be
       0.31520402 -0.057655018 0.37952435 -0.35907573
000030 7f 8a 1f 3c de e9 41 bf 05 a0 b5 3e d4 3b 9f be
       0.00973761 -0.7574748 0.35473648 -0.31100333
000040 5f 93 1e bf de 41 76 3e 87 13 25 bf 54 6d ab 3e
       -0.6194362 0.24048564 -0.6448292 0.33481848
000050 4c 31 2a bf 17 8e ed 3a 4c 79 20 bf 96 e1 18 3d
       -0.6648147 0.0018124011 -0.62685084 0.03732451
000060 d3 5d 14 3e da 24 b2 bc ad 55 bc 3d b7 b4 be be
       0.14488916 -0.021746088 0.09196029 -0.3724725
000070 85 8b 10 3f 66 c0 10 bf bf 49 48 be 68 da 9d 3b
       0.5646289 -0.56543577 -0.19559382 0.004817296
000080 54 85 ba 3e dc b8 f0 be b2 49 e5 3e 8d 72 c3 be
       0.36429846 -0.47016037 0.44782788 -0.38173333
000090 ba 7a 7a 3e a7 95 38 3e fd 83 0f bf ea 7a fc bd
       0.24460879 0.18025838 -0.56060773 -0.123281315
0000a0 17 54 58 3e 25 9c 67 3f a0 4a 0c bf 4b 9b a4 3e
       0.21125828 0.9047263 -0.5480137 0.3214973
0000b0 d7 0c 58 be 65 d7 6c be 85 f7 ed bd 30 c2 d0 bd
       -0.21098648 -0.23129041 -0.11619476 -0.10193288
0000c0 cc 97 37 bf 87 9e 26 3e 3c d8 df be b0 6b 9e be
       -0.71716 0.16271411 -0.4371966 -0.30941534
0000d0 ec 38 2c bd 2a 0e 89 3e 6a 50 84 be c0 b7 d7 bd
       -0.042046472 0.2676862 -0.258426 -0.105330944
0000e0 01 29 07 3f 36 84 2c bd ff 2c 34 3e ec d8 83 3f
       0.5279694 -0.042118274 0.1759529 1.0300574
0000f0 df ca 46 be 79 60 cf 3d c6 0a cd be 04 2b 03 bf
       -0.19413327 0.101258226 -0.40047282 -0.5123751
000100 c8 cc c0 3d ae b7 a2 be 45 14 eb be 62 04 89 3d
       0.09414059 -0.3178076 -0.45913902 0.06690289
000110 1e 62 4f 3e 76 20 eb be 19 95 f5 bc 15 41 12 bd
       0.20252272 -0.45923203 -0.029978322 -0.0357066
000120 ce 3a 13 3f c1 fd 82 3f e2 72 fa be 69 02 9f be
       0.57511604 1.023369 -0.48915774 -0.31056526
000130 df 87 69 3e 6f 67 1f 3e f4 38 6a be ce 2a 83 be
       0.22805737 0.155668 -0.22873288 -0.25618595
000140 89 a4 b4 3e 41 1d 32 be db 0b 79 bf 11 f6 4f be
       0.3528178 -0.17393972 -0.97283715 -0.2030871
000150 12 ca 3f bf 16 f6 01 bf 91 d2 10 3f 28 84 9f 3e
       -0.7491771 -0.5076612 0.565713 0.31155515
000160 eb 67 00 3f 66 7b 1c 3e cc 7f e9 3e 58 42 8f 3e
       0.50158566 0.15281448 0.45605314 0.27980304
000170 68 9a 71 bf f3 f8 77 bd 49 c2 3b be e7 70 0e be
       -0.9437623 -0.06054015 -0.18335833 -0.13910256
000180 66 b0 bb 3d 02 d8 1e 3e fa 6e 12 3e 85 75 30 bf
       0.09164505 0.15512088 0.14300147 -0.6892932
000190 6f 96 b3 3d c7 36 88 bb 46 01 f7 3c ac 64 0a 3e
       0.08768927 -0.0041569206 0.030151974 0.13514966
0001a0 0d d8 5f 3f bd 92 4f bd b2 b1 18 bf 30 3c b0 3e
       0.8743904 -0.05067705 -0.5964614 0.3442092
0001b0 02 38 58 be 9d c5 dc be 9f ed 2b 3c 39 bd 35 bf
       -0.21115115 -0.43119517 0.010493665 -0.70991856
0001c0 cd 6e ac 3d 40 47 be bd 9b c8 48 3e b9 f2 1c 3e
       0.08419571 -0.092909336 0.19607775 0.15326966
0001d0 35 c0 2c bf 66 c1 02 3f 9e 9b 46 bf b1 81 f2 be
       -0.67480785 0.5107635 -0.77581203 -0.47364572
0001e0 1b a4 35 bf 69 67 a1 be a9 23 6f bf 3d 83 6f be
       -0.7095353 -0.31524208 -0.9341379 -0.23389907
0001f0 6f 7a 02 3e 55 48 bc be 89 4f b6 bc d7 23 4d bf
       0.12742017 -0.36773935 -0.022254722 -0.8013281
000200 6f 6d 9d 3e 49 67 12 3f 2a d6 63 be 13 34 c8 3e
       0.30747554 0.5718885 -0.22249666 0.3910223
000210 d4 2a bf 3e bc d6 cc bd dc 4e be 3c 35 be 6e be
       0.37337363 -0.10001895 0.023230962 -0.23314746
000220 b0 e9 11 be 64 58 6b 3d 25 73 43 bf 9f 9f fe be
       -0.14249301 0.057457343 -0.7634757 -0.49731156
000230 32 c6 ea bc b4 04 cd be 37 10 01 bf a9 da 06 3e
       -0.02865896 -0.4004265 -0.50415367 0.1316935
000240 bc 59 09 3f ac cf a1 be 7b fe 90 3f 25 dd 5a 3e
       0.5365255 -0.31603754 1.1327661 0.21373422
000250 9f d4 84 3e 32 ff cf bc 09 02 3a 3f 06 0f 4b 3e
       0.25943467 -0.025390241 0.72659355 0.1982995
000260 bd 8e b2 be ea 39 7c 3f d3 29 76 be 9a 0f 66 bf
       -0.34874526 0.9852587 -0.24039392 -0.89867556
000270 52 61 0b 3f 10 3c 56 be 80 9b 02 3e 74 d1 f8 3d
       0.54445374 -0.2092135 0.12754631 0.12149325
000280 2b d6 4f 3e 23 a3 c7 bd d3 56 f9 be cf e2 9c be
       0.20296542 -0.09747913 -0.48699054 -0.3064179
000290 91 d2 17 3f 01 12 de 3e 0e 8c 58 be 88 f1 0f bd
       0.59305674 0.4337311 -0.21147177 -0.03514245
0002a0 9f f3 a4 3e 44 2f 59 3e 09 a1 9d bd 76 8c ac 3d
       0.32217118 0.21209437 -0.07696731 0.08425228
0002b0 66 64 af be 8b 54 24 3f 83 03 31 be e9 cd 87 be
       -0.34256285 0.641915 -0.17286496 -0.26524284
0002c0 6a 78 b6 be 39 ec 08 bf bf 7d a4 3e 94 21 6c 3f
       -0.35638744 -0.5348545 0.32127187 0.92238736
0002d0 58 e7 85 bd c9 fb b8 bc b1 cf ad 3e 9a 29 09 3c
       -0.06538266 -0.022580998 0.33947518 0.008371735
0002e0 eb 8b 0c be fe 47 cd be b9 3f a6 be 65 19 30 be
       -0.1372525 -0.40093988 -0.32470492 -0.17197187
0002f0 e7 bf 26 bf 1f f1 7d bc 91 94 43 3e cf a1 a7 3d
       -0.6513657 -0.015499382 0.19099642 0.081851594
000300 60 9f 23 bf db 0c 26 bf 4d ba 2e 3f ce ae 70 bf
       -0.6391506 -0.64863366 0.6825302 -0.9401673
000310 c5 4d d4 3e df 86 40 bf 15 e9 a9 be 3e c6 32 be
       0.41465583 -0.75205797 -0.3318564 -0.17458436
000320 61 65 64 bd 33 3b e5 3e 66 6d 10 bf 11 7e 23 3e
       -0.055760745 0.44771728 -0.5641693 0.1596606
000330 a2 47 3c bf a0 7e 86 3d dc 49 62 bf 59 02 e0 be
       -0.73546803 0.065671206 -0.8839395 -0.4375179
000340 ad eb 06 3f 43 d7 81 be 56 5e 8c 3e 94 d2 48 bf
       0.5270336 -0.25359544 0.27415723 -0.78446317
000350 d2 ea 07 3c b7 6e 4c bf 70 62 f0 bd ca ec fa 3e
       0.008295732 -0.7985644 -0.117375255 0.4900878
000360 5b 1e fb 3d ee 2a 45 bf 82 8a 21 3f 59 80 34 bf
       0.12261649 -0.7701863 0.6310197 -0.70508343
000370 d5 58 e5 be 65 3b 45 3f 20 65 c2 3e c8 ab dc 3e
       -0.44794336 0.77043754 0.37967777 0.4309981
000380 59 74 2c be 64 a1 8b be 7e 9e 95 3e 37 07 36 bf
       -0.16841258 -0.2727157 0.29222482 -0.7110476
000390 88 1b f5 3e b6 dd b0 be f4 e2 2d 3f 2c 86 59 3e
       0.47872567 -0.34544152 0.6792443 0.21242589
0003a0 38 79 6a be 8d 42 d1 3d 27 bf 19 bf af 80 29 be
       -0.22897804 0.10217772 -0.600573 -0.16552995
0003b0 b9 65 79 3f 9f df f0 be 5a bb 01 3e 4e 3c c5 3d
       0.9742084 -0.4704561 0.12669125 0.09630643
0003c0 18 43 10 3f a8 0b e7 be bf 83 5b be c6 5e 90 bb
       0.56352377 -0.4512608 -0.21436976 -0.004405829
0003d0 75 75 41 3e 3e 55 8e 3d 15 19 be 3d f0 40 e7 3b
       0.18892463 0.069498524 0.09282128 0.0070573017
0003e0 a9 94 b1 be 46 13 09 bf 7a ab 3b 3e 94 45 3a 3f
       -0.3468373 -0.53545034 0.18327132 0.7276242
0003f0 f8 7f ca 3d 65 4c fb bd 50 73 be be d4 0c 01 3e
       0.09887689 -0.122704305 -0.3719735 0.1260255

weight f4 [8]
000000 4d f1 aa 3f 86 0d dc 3f 0a 0b ce 3f b1 ab 98 3f
       1.3354889 1.7191627 1.6097119 1.1927396
000010 40 0f b6 3f 05 39 b4 3f 48 c1 a1 3f d1 03 ad 3f
       1.4223404 1.4079901 1.263711 1.351679

bias f4 [8]
000000 26 5f dd be b9 c5 67 bf 1c 7a 41 bf dd 4d 76 be
       -0.43236655 -0.90536076 -0.7557695 -0.2405314
000010 ad 26 0a bf f2 4b f0 be e3 6b 81 bf ed 5a 11 bf
       -0.53965265 -0.46932942 -1.011105 -0.56779367

running_mean f4 [8]
000000 0d 08 6f c0 dd 66 16 c0 87 ba a0 3e ad 34 39 bf
       -3.7348664 -2.3500283 0.3139231 -0.72346
000010 7b 9b 48 c0 ee bb 3a c0 71 c4 10 3f 5f f9 9d 3f
       -3.1344898 -2.9177203 0.56549746 1.2341727

running_var f4 [8]
000000 65 ab f1 40 d9 2f 22 41 73 48 36 41 91 5b 1a 41
       7.552172 10.136682 11.392688 9.647355
000010 00 f4 e1 40 2e e4 fa 40 ef 38 fe 40 d6 b2 0b 41
       7.061035 7.840354 7.94445 8.731161

weight f4 [16, 8, 3, 3]
000000 8c 91 a3 3d 49 69 b2 3e 09 bb 6b be d6 17 00 3f
       0.07986745 0.3484595 -0.23020567 0.5003637
000010 04 7a 0b bf 06 93 04 be 7e cb 1f 3f f7 fe 7d be
       -0.54483056 -0.1294671 0.6241988 -0.24804293
000020 ce 99 de bc 8d 1c 94 3e 49 06 21 bf ee 7e 38 3f
       -0.02717295 0.28928033 -0.62900215 0.7206868
000030 10 51 df 3d 73 a1 2b bf 83 16 33 bd f1 1b bf be
       0.10904133 -0.67043227 -0.04372264 -0.37326005
000040 11 b6 a0 be b3 52 89 3d ef d5 68 be 5b 6c cd be
       -0.31388906 0.06705227 -0.22737859 -0.4012173
000050 0f 64 d7 3e 26 2d ee 3d 42 1f 5a 3f 4b fd 85 be
       0.42068526 0.11629705 0.85203946 -0.2616981
000060 b7 e1 8c bd af 07 25 3b 82 4f 54 3e 3a b7 f0 be
       -0.06878989 0.0025181582 0.20733455 -0.4701479
000070 6c 32 53 3f 14 37 b2 3e ae b8 be 3e ed 73 ff 3e
       0.8249881 0.34807646 0.37250274 0.49893132
000080 14 f8 fd 3e 94 bd 81 be d8 b3 9f 3c 9e c5 88 3e
       0.4960333 -0.2533995 0.019494936 0.2671327
000090 15 92 e9 bd 54 3d a0 3e e6 01 63 be 92 35 f5 3d
       -0.11404816 0.3129679 -0.22168693 0.11973108
0000a0 a9 50 bc 3e b7 5a b0 bd 51 44 3d be ab f9 4c be
       0.3678029 -0.086110525 -0.18483092 -0.20017116
0000b0 04 f1 dd bc 08 0b a7 3d 8f 79 6c be 8f 7d b3 bd
       -0.027092464 0.08156401 -0.23093246 -0.08764183
0000c0 f9 f8 c2 be 5f 18 09 3e f0 0b 32 3c 05 80 04 bd
       -0.38080576 0.13388203 0.010867104 -0.03234865
0000d0 95 d1 b1 3e c2 e6 37 bf 03 f3 16 be 3d 3e 0e 3f
       0.3473021 -0.71836483 -0.14741139 0.5556372
0000e0 83 39 0a 3e 1f f7 f4 bd 53 60 b8 3d 49 46 ea bd
       0.13498501 -0.11961197 0.090027474 -0.11439187
0000f0 be 32 d9 be ef 39 a1 be 61 c1 dc 3d e8 f4 0b 3e
       -0.42421526 -0.31489512 0.107790716 0.13667643
000100 47 e4 92 3e b8 84 e5 3d 90 a4 a8 3d e6 c1 04 be
       0.28689787 0.11206955 0.08234513 -0.12964591
000110 fa 88 c1 be df 2b 24 bf f2 4c 31 be 8b b2 7a 3e
       -0.37799817 -0.6412944 -0.17314509 0.24482171
000120 29 1f de 3c 83 76 71 3e cb 56 94 3e ce 4f 8e 3d
       0.027114468 0.23580365 0.28972468 0.06948815
000130 eb 37 0b bf d8 5a 48 3e 72 e1 b3 be 2e 8f 91 bd
       -0.543822 0.19565904 -0.3513294 -0.071073875
000140 9c f8 27 be 13 29 85 3e dd 35 2d 3e 84 fa 3a 3b
       -0.1640343 0.260079 0.16915078 0.0028530667
000150 f4 bb 5a 3d db 4a 96 bd 34 1c 36 3e 03 3d 88 be
       0.053401902 -0.07338496 0.17784196 -0.26609048
000160 19 8f da bc 78 57 a9 be ee 7e 18 be 99 71 a8 3e
       -0.026679562 -0.33074546 -0.1489217 0.32899168
000170 0f 3d cd be 0c 61 08 bf a2 3a 08 be a2 b5 15 3d
       -0.40085647 -0.5327308 -0.13303617 0.03655017
000180 80 97 cd bd cd 6e 52 3e dc 2f 20 be d5 b2 20 bf
       -0.10038662 0.2055008 -0.15643257 -0.62772876
000190 5b de 0f be 23 da 5f 3d 60 dc 89 3e a0 ec 7d bd
       -0.14049666 0.05465139 0.26925945 -0.06199324
0001a0 53 e0 0b be 19 7a 38 be 6e 99 12 3f 88 b4 0c 3e
       -0.13659792 -0.18015327 0.57265365 0.13740742
0001b0 cc 4c 5a bd 75 c5 8e 3e 91 7b b6 3e 43 6d a7 3d
       -0.053295895 0.27885023 0.3564115 0.08175137
0001c0 6e b1 6c be 35 36 04 be a0 ed 04 bf d2 2d ce be
       -0.23114559 -0.12911303 -0.51925087 -0.40269333
0001d0 37 d3 15 bf 1a 25 9e 3e 80 98 33 3e d7 ab c9 3d
       -0.58525413 0.3088768 0.17538643 0.09847229
0001e0 2b d4 96 3d ad 20 77 3e 8b 0b 94 3d a7 07 22 3e
       0.073646866 0.24133559 0.07228764 0.15823232
0001f0 3f 78 84 3e c5 bf 88 3e 3f c7 cd be c6 7d d9 3c
       0.2587299 0.2670881 -0.40191075 0.026549231
000200 fa 8f 71 3d 2a e6 e9 3d e8 f0 f0 be 1a bd 00 be
       0.058975197 0.114208534 -0.47058797 -0.12572137
000210 67 91 61 3e 56 79 af bd 7f ac 15 3d e2 27 29 3e
       0.22028123 -0.08568065 0.03654146 0.1651912
000220 41 c2 f6 be 1d 57 86 be d3 b4 47 be 56 c6 e5 be
       -0.4819508 -0.26238337 -0.19502573 -0.4487788
000230 55 a9 35 3d 0b 92 9c 3e c5 13 33 3b 26 bd aa 3d
       0.04435094 0.30580172 0.0027325016 0.083368585
000240 33 b9 4e 3c 4e 8b ab bd 51 e9 d2 3e d1 9f 65 3d
       0.012617397 -0.0837618 0.4119363 0.056060616
000250 31 b3 91 3c b9 db 58 be 97 30 23 bf 10 2d 62 bd
       0.01778564 -0.21177568 -0.6374602 -0.055218756
000260 0a bc e6 be 87 73 01 3e c6 cb a8 be d7 f5 47 3e
       -0.45065337 0.12641726 -0.32967967 0.19527374
000270 da 09 a3 bd fb 6d 0d 3f d1 20 a3 3d 29 11 ee be
       -0.079608634 0.5524594 0.079652436 -0.46497467
000280 28 14 16 bf 29 87 ef be 5a b2 84 be 18 bb b8 be
       -0.58624506 -0.46782807 -0.2591732 -0.3608024
000290 bb 0f b3 be 4b 5b 89 3e 63 d3 5d 3e c8 34 8e be
       -0.3497294 0.26827464 0.21662669 -0.27774644
0002a0 c8 3c 09 bf d8 15 d8 bd ba 62 a2 3e a0 09 7f be
       -0.5360837 -0.10551041 0.31715947 -0.24906015
0002b0 41 bc 9c be 42 cb 55 3e be 16 dc 3d 00 00 c7 be
       -0.30612376 0.20878318 0.10746525 -0.38867188
0002c0 7d 8e 89 bd be 0c 3c 3e a0 f4 a9 be 38 e2 cf bc
       -0.067166306 0.18364236 -0.33194447 -0.025376424
0002d0 07 5c df 3d f6 3e 5e 3e 93 a6 0e 3d 54 05 c8 3c
       0.10906225 0.21703705 0.034826826 0.024416603
0002e0 cd fb fa 3d f8 67 2c be b7 13 84 3e 6a 6f 18 be
       0.122550584 -0.16836536 0.2579629 -0.14886251
0002f0 7f da c5 3e e7 b3 7a bb 65 ad 96 be bb 85 78 3e
       0.38643262 -0.0038254203 -0.29429165 0.24269764
000300 a4 93 07 bd 99 01 29 be 32 e4 10 be 70 1d be 3d
       -0.033099785 -0.16504516 -0.1414955 0.092829585
000310 9b 14 4d be 93 09 fe 3e 54 da 89 be 73 19 d1 be
       -0.20027392 0.4961668 -0.26924384 -0.4083973
000320 3c be 1f 3e 8e b2 bf be a7 61 af 3c 78 31 cd bd
       0.15599912 -0.37440914 0.021408869 -0.10019201
000330 b8 09 b1 be c6 ac 41 3e d0 43 f2 be 51 c2 67 3e
       -0.34577727 0.18913564 -0.47317362 0.2263272
000340 ce 86 e2 be f8 8b 45 3e 89 84 82 be 9b 81 68 3e
       -0.44243473 0.19291675 -0.2549174 0.2270569
000350 f0 cc 2f be 24 8f d4 be e2 da 04 3e 26 27 f5 bd
       -0.17168021 -0.41515458 0.12974122 -0.119703576
000360 62 dc 04 bf 23 e0 8e bd e0 d2 01 3f d2 87 9d be
       -0.5189878 -0.069763444 0.50712395 -0.30767685
000370 a7 6a a4 be 5b dd b9 3e a2 00 2d be bd 7d 54 be
       -0.3211262 0.36301693 -0.16894773 -0.2075109
000380 fd 05 21 be 43 3f e5 3d 8d f8 22 3e 30 4a 8a 3e
       -0.1572494 0.11193707 0.15915127 0.27009726
000390 dd 7c cd 3e ba 40 ef bc ac 9e 2a bd 42 70 10 3e
       0.40134326 -0.029205669 -0.041655228 0.14105323
0003a0 54 2d 77 3c 88 19 aa bc be 07 87 be 15 7b 56 3b
       0.015086491 -0.020764127 -0.26373094 0.0032727171
0003b0 fe d4 4b bd 4b 91 b6 be 8f e8 aa be 8a 0a 47 3e
       -0.049763672 -0.35657725 -0.33380553 0.19437614
0003c0 fd 05 db 3e 7f 7e e9 3d e7 51 39 bf e8 8d d6 be
       0.42778006 0.1140108 -0.723906 -0.4190514
0003d0 32 59 3f 3d ec 6c 26 3e 60 d8 2a bf 36 28 6e bf
       0.046715923 0.16252488 -0.6673641 -0.9303011
0003e0 11 12 70 be 62 59 86 3e 53 02 25 be cd 97 88 bd
       -0.23444392 0.2624007 -0.16114168 -0.06669579
0003f0 93 7f 63 bc 72 73 9a be 81 b4 94 be 40 d3 be 3e
       -0.0138853965 -0.30166203 -0.29043964 0.37270546

weight f4 [16]
000000 a4 8c 07 40 28 c9 d0 3f 95 33 db 3f 11 e0 07 40
       2.117959 1.6311388 1.7125117 2.123051
000010 89 80 f0 3f 04 1d db 3f bc d0 f6 3f 61 1a f4 3f
       1.8789226 1.711823 1.9282451 1.907055
000020 3d 42 25 40 52 f1 15 40 fd 25 33 40 3e b2 1f 40
       2.5821679 2.342854 2.7991936 2.495254
000030 4c 3e 1d 40 30 85 21 40 21 1a 3c 40 59 85 2a 40
       2.4569273 2.5237541 2.9390948 2.664389

bias f4 [16]
000000 3b f7 6c 3e e1 c8 e4 be 87 4d 53 3e 75 5c 2e be
       0.23141186 -0.44684508 0.20635043 -0.17027457
000010 e3 45 23 3f 30 50 ce 3d da 69 61 be de da 60 3c
       0.63778514 0.10073888 -0.22013035 0.013724057
000020 b5 38 67 3d 13 3f 39 3e c8 79 88 3e 75 a6 e8 3e
       0.056450564 0.18090467 0.26655412 0.45439497
000030 9e 7a 8c be 32 e2 84 3e d1 8a 94 3d 88 0e c4 bd
       -0.274373 0.25953823 0.0725304 -0.09573084

running_mean f4 [16]
000000 24 99 b4 3e b6 b4 92 bf 3f 1f ef bf cb 3c 29 c0
       0.35273087 -1.1461399 -1.868141 -2.6443355
000010 6b 86 0e c0 75 da 01 c0 09 d4 1c c0 21 da 36 c0
       -2.2269542 -2.0289586 -2.4504416 -2.8570635
000020 1f f7 f8 be 0e f0 93 be db 90 37 bf 3b 07 86 bf
       -0.48626038 -0.28894085 -0.71705407 -1.0470957
000030 40 19 4d 3d ca 1f ef 3d 6a a3 b9 bf 4c 52 61 3e
       0.05007291 0.11675985 -1.4502995 0.2200405

running_var f4 [16]
000000 4f 1c d8 40 3e 5f fe 3f a2 6f 3c 40 34 fe 18 40
       6.7534556 1.9872816 2.9443135 2.3905153
000010 70 90 50 40 80 7b 3d 40 0c 98 f8 3f 66 63 a5 40
       3.2588158 2.9606628 1.9421401 5.1683836
000020 c1 b0 e5 3f 99 9a fa 3f a8 1d 5a 40 4a 99 c7 3f
       1.7944566 1.957843 3.40806 1.5593655
000030 5d 52 e4 3f a5 ef 9e 3f 24 3b 64 40 38 b4 eb 3f
       1.7837635 1.2416884 3.5661097 1.8414373

weight f4 [64, 96]
000000 25 4e fc 3d 2e 08 14 ba 38 a6 9f bd 3f 82 e9 3d
       0.123195924 -0.0005646971 -0.077953756 0.114017956
000010 36 27 b9 bd 0c fc 7c bc d3 48 69 3d 72 b1 28 3d
       -0.09040682 -0.015440952 0.056954216 0.04118485
000020 da 27 60 be 08 4b d4 be 54 b8 af be 89 73 a9 3d
       -0.21890202 -0.41463494 -0.3432032 0.0827399
000030 46 cf b7 3d 46 e0 3c 3e 0b 58 04 be 50 69 17 3e
       0.08975081 0.18444929 -0.1292421 0.14786267
000040 f1 1a 51 be 7c e2 dc bc 8c c9 f2 3c 2b ad 73 3e
       -0.20420434 -0.026963465 0.02963712 0.23796527
000050 29 46 f3 3d 9b 5c 06 bb 48 bd b8 3d dd 0b a9 bd
       0.11878616 -0.0020501975 0.090204775 -0.08254216
000060 4f 14 93 bc 47 7b 1d 3d b7 de 69 bd 62 c5 8d 3e
       -0.01795402 0.038447645 -0.057097163 0.27689654
000070 06 d6 54 bd 4f 2e 23 3e 83 30 6f 3d 5a 83 63 be
       -0.05196192 0.15935634 0.058395874 -0.22218075
000080 a6 69 20 3e 6b 20 a9 be d4 7c 1c 3e b1 26 59 3e
       0.15665302 -0.33032545 0.15281993 0.21206166
000090 5b 8e c5 3c dc b2 3d 3d 02 06 59 3d 43 80 ce 3d
       0.024115732 0.04631315 0.052984245 0.10083058
0000a0 cc 52 cb 3d f0 33 f0 3d a3 64 28 3d 0a 3e 3e bd
       0.099279016 0.11728656 0.0411116 -0.046445884
0000b0 b9 2e e2 3d db fe d5 3c 4b ab 4d 3e c2 3a 05 3e
       0.11044068 0.026122501 0.20084874 0.13010696
0000c0 b4 cc af bd 6a ef 1e bb 88 bd 04 bd 39 22 ae bd
       -0.08583966 -0.0024251589 -0.032407314 -0.08502621
0000d0 82 53 11 be c6 00 de bd 58 20 a3 bd 60 f3 77 3e
       -0.14192012 -0.10839991 -0.079651535 0.24213934
0000e0 06 25 f2 bd b7 9a af 3d d5 66 44 3e e0 b9 a7 3e
       -0.11823468 0.085744314 0.19179852 0.32759
0000f0 55 50 0a 3e d7 cc 4b 3e 55 d1 5a bb f0 23 99 3c
       0.13507207 0.19902359 -0.0033388932 0.018693894
000100 84 e4 89 3e 41 4c 05 3d f2 91 19 be c4 85 19 be
       0.26932156 0.032543425 -0.1499708 -0.14992434
000110 16 30 24 3e 6b 41 8f 3e 00 43 02 3e c2 5a 74 3d
       0.16033968 0.27979597 0.12720871 0.059656866
000120 ca da e7 bd 3e e0 10 be c4 c0 b8 3e 5c 24 89 3e
       -0.113210276 -0.14148042 0.36084569 0.26785553
000130 6b de 7a 3d 86 51 90 3d 87 07 cb 3c 96 3e fe 3d
       0.06124727 0.07046799 0.024783863 0.12414281
000140 4f 2b 1d 3d c0 d7 d9 bd 9a 1f 29 3e cb af ad 3c
       0.03837138 -0.10636854 0.16515961 0.021201989
000150 5e f1 25 3d fb 7d 2e 3e 5d d2 cd 3d ed e9 b4 3d
       0.04051339 0.17040245 0.10049889 0.0883368
000160 96 d8 38 3c 70 ed 1c 3e 64 35 f0 3c 08 b7 5b bc
       0.011282107 0.1532495 0.029322334 -0.013410337
000170 d5 51 b9 3c 36 34 28 be 1c f2 6a bd 04 66 5a be
       0.022622028 -0.16426167 -0.0573598 -0.21327978
000180 c4 c7 18 bc 80 d4 f2 3c 23 17 36 3d 20 7c 9a bc
       -0.009324972 0.029642344 0.04445566 -0.018858016
000190 7d 97 82 bd 79 72 e2 bb e3 d0 d1 bc 1b 4e 3b 3d
       -0.0637655 -0.006910619 -0.0256123 0.045728784
0001a0 c8 65 c8 bc 2a f6 2b be dd d0 51 bd e6 db 72 bd
       -0.024462596 -0.16793123 -0.05122458 -0.059291743
0001b0 2f b2 5e 3d fb 96 e5 3b 95 81 80 3d 80 f9 35 3c
       0.054369148 0.0070065237 0.06274716 0.011106849
0001c0 57 c5 ec bc e8 d9 d8 3a 3b 2f 6d 3d d6 21 b1 3d
       -0.028902693 0.0016544433 0.05790637 0.08649032
0001d0 d2 a8 82 39 bc 8b 83 ba e4 bd 69 3d 62 2c 32 3d
       0.00024921313 -0.0010036151 0.05706586 0.043499358
0001e0 4a 61 80 3c 7b 80 95 3d 4a a8 d1 bc c5 e1 b2 3d
       0.015671391 0.07299896 -0.025592942 0.08734468
0001f0 ed 3b 31 3d 02 b2 1e bc 81 67 0e bd 79 77 0f be
       0.04327004 -0.009685995 -0.034766678 -0.14010419
000200 ce f3 b0 3c 1c d3 8b bc 7b ef 09 3e 44 0f b3 3d
       0.02160063 -0.017068438 0.13470261 0.08743146
000210 c5 a8 ac 3c 6d 44 22 3b ce 06 e3 bc 9f ce 0e 39
       0.02107657 0.0024760023 -0.027713206 0.00013619148
000220 78 40 8f 3b 36 e5 01 bc 06 3d cc bc 2c ed 10 bd
       0.004371699 -0.007928183 -0.024931442 -0.035382435
000230 5f 60 b6 bc 3b 18 5d bc 7b 09 cc 3d 1d c2 04 bc
       -0.02226275 -0.0134945465 0.09962746 -0.008102921
000240 a8 67 bf 3d e9 8e 84 bd df c8 83 bd 2b 29 ac bc
       0.09345943 -0.064725704 -0.064347975 -0.021015724
000250 34 d4 cc bd 1e 54 85 bd ce cb d6 3b 0d 74 1a 3d
       -0.10001412 -0.06510185 0.006555057 0.03770833
000260 d5 48 2e bd 80 5d af 3d 20 c8 d5 3d d6 95 51 3e
       -0.042549927 0.085627556 0.104385614 0.20467314
000270 f0 6e 7e 3d 52 58 85 3b 93 60 d7 3c 9b 07 94 3d
       0.062117517 0.0040693665 0.026291167 0.07228013
000280 88 b6 75 3d 5d 56 57 bd 4a 2a 2a bd de 2a 4d 3c
       0.05998853 -0.052572597 -0.041544236 0.012522427
000290 25 c3 47 3c 2b 11 3c 3e 58 2d a9 3d a7 a1 a6 bd
       0.012192522 0.18365924 0.08260602 -0.081363015
0002a0 08 4b 37 bd 69 8f 81 3d d2 49 1e 3e 07 06 9d 3d
       -0.04474929 0.063261814 0.15457848 0.07667165
0002b0 84 6c 4a bd 23 60 22 3d 43 38 01 3d c7 f9 e0 3d
       -0.049419895 0.039642464 0.031547796 0.10985141
0002c0 0d 72 4b 3b 79 fc 3a bd 18 97 97 b6 af b0 60 3d
       0.0031043321 -0.045650933 -4.5177403e-06 0.054856
0002d0 40 2e eb bc 6a 20 05 3e e3 38 cc bb 23 9b 88 bd
       -0.028708577 0.13000646 -0.0062323674 -0.06670215
0002e0 8b 41 be 3d 06 54 8e 3c 6b 49 ea 3c c0 25 9c 3b
       0.09289845 0.01737405 0.028599462 0.0047652423
0002f0 4d cc 83 bd bc c4 c4 bd 19 7d e9 3c 8e 41 eb bd
       -0.06435452 -0.096078366 0.028502034 -0.11487113
000300 c2 52 9b 3d b2 1b 31 3d 2a ac 42 3d c8 ef 15 be
       0.07584144 0.043239303 0.04752747 -0.1464225
000310 46 f3 05 3e 9f fb 83 3e 59 85 8c 3e 48 a6 58 be
       0.13081083 0.2577791 0.27445486 -0.21157181
000320 bf 84 95 bd 8e 04 4a 3e c9 45 28 bb 98 94 39 bd
       -0.0730071 0.197283 -0.002567636 -0.045307726
000330 f2 5b a3 bd 93 76 aa bd eb b7 1c 3e 1d be 55 be
       -0.079765216 -0.083233975 0.15304534 -0.20873304
000340 68 41 e4 bb ae 6c 97 3b df 97 82 bc 38 52 55 bd
       -0.006965805 0.00462111 -0.015941558 -0.052080363
000350 a6 fe d5 bd 23 1f 96 bd 8d 61 6b bd a5 fb 4d 3e
       -0.10448961 -0.073301576 -0.05746608 0.20115526
000360 f7 50 8b bd 5b 7c 75 bc 8c 62 a1 3d 64 7f 40 bc
       -0.06802552 -0.014983262 0.078801244 -0.011749122
000370 1e ba 8f bc ed cd cd 3d 59 1c 2f be 15 2f 65 3e
       -0.017544802 0.10049043 -0.17100658 0.22381242
000380 8c 11 84 bd 55 97 43 3e 3c 07 a0 bc 50 55 da bd
       -0.06448659 0.19100697 -0.0195347 -0.10660803
000390 af 04 1c 3e 28 9c f1 bd 78 d7 03 be 59 3e 3b 3d
       0.15236162 -0.117973626 -0.12875164 0.045713756
0003a0 8a 8c cc 3c b8 98 33 be 79 88 75 bc d7 2d 7f 3e
       0.024969358 -0.17538726 -0.014986151 0.2491983
0003b0 06 6b 1a bd 6c f7 3a bc 6c c1 ff be c6 25 71 3b
       -0.03769972 -0.011411529 -0.49952257 0.0036796196
0003c0 84 47 90 3d eb eb 05 3d ed d9 8f 3d 5d fb c2 3d
       0.070448905 0.032695692 0.07023988 0.095206
0003d0 fb b2 53 3b 91 06 3d 3d 19 1c 8e bd 48 36 52 3e
       0.0032302726 0.04614884 -0.06938953 0.20528519
0003e0 18 71 d6 3d bc fd 1d bd 51 b0 c2 be c4 af 51 be
       0.1047079 -0.038572058 -0.38025144 -0.20477206
0003f0 d1 0d a5 bb 9d 53 fc 3c 2d 38 69 3e cd 02 73 3e
       -0.0050370474 0.030801589 0.22775336 0.23731537

bias f4 [64]
000000 4e a7 c5 3b 93 9d e4 3d 27 18 24 3e 0e 39 39 bd
       0.006031907 0.111628674 0.16024838 -0.045220427
000010 fc 5c 1a bd 1d 36 58 3d f0 c2 ce 3c 74 d5 1f bd
       -0.037686333 0.05278598 0.025239438 -0.039021924
000020 7f 44 41 3d 05 9d fd 3d aa 25 96 3d 78 36 c2 3d
       0.047184464 0.12383465 0.073314026 0.09483045
000030 0d 1c 3d 3b 33 ef b3 3d 9a e4 52 3d ea 03 11 3e
       0.002885583 0.08785858 0.051487543 0.1416165
000040 55 90 af 3d aa ab 27 bb ac 66 a4 bd 80 57 ef b8
       0.08572451 -0.0025584497 -0.080273956 -0.00011412706
000050 56 7e 0f 3d 18 5e 53 3d e7 13 f1 3d 49 d2 8c 3d
       0.035032593 0.051603407 0.11771374 0.06876046
000060 19 b3 25 3e 13 2f 97 3d d2 e1 f8 3b 1e df 7f bd
       0.16181602 0.073820256 0.0075952793 -0.06246864
000070 b7 b8 cb bd a3 c3 30 3d 47 7b 89 bd 1b 55 33 3d
       -0.09947341 0.043155324 -0.067129664 0.043782335
000080 77 89 08 3e b0 ff df 3d 4c a0 5d 3e 50 9b 8f 3e
       0.13333689 0.109374404 0.2164318 0.28048182
000090 d9 85 4d bd 3f 9e dd bc 0a cf b7 bd 51 05 82 3d
       -0.050176475 -0.027052997 -0.089750364 0.0634867
0000a0 ee f2 c5 3d 03 71 38 bd a5 93 10 bd 6e eb 57 3d
       0.09665476 -0.04502965 -0.035297055 0.052714758
0000b0 19 f7 3e 3e f8 f9 84 3e 8d e2 a5 bd 84 c7 91 3d
       0.18648948 0.2597196 -0.08099852 0.07118133
0000c0 93 d0 8a 3d 74 1a 83 3e f7 1c c7 3d 2e 76 06 3d
       0.067780636 0.2560612 0.097223215 0.03282755
0000d0 95 21 b6 3c 41 d8 b7 3c 02 4f 16 bb 49 a2 a4 3b
       0.02223281 0.022441985 -0.0022935276 0.0050242287
0000e0 61 40 0d bd 67 32 a7 3e e2 a5 24 bd 5f e9 a7 bb
       -0.034485225 0.3265564 -0.04019726 -0.0051242555
0000f0 58 55 d2 bc 83 b9 05 bd 76 cf de 3d b5 b0 6c 3c
       -0.02567546 -0.03264762 0.10879414 0.014446427

weight f4 [1, 64]
000000 b3 99 7a bf c5 74 84 be 41 c9 7d 3f b6 f3 80 be
       -0.97890776 -0.25870338 0.99135214 -0.25185937
000010 16 00 0c 3e a2 1e 0f be 17 11 d5 3e f5 7f db be
       0.13671908 -0.13976529 0.416146 -0.4287106
000020 be bb 88 3f 5f 19 90 be 6d cf 18 bf b0 4d 58 bf
       1.0682294 -0.28144357 -0.59691507 -0.8449354
000030 78 3e 98 be b7 55 13 3e 61 ef 43 be 99 1a 4f 3f
       -0.2973516 0.14388166 -0.19134285 0.8089996
000040 65 d3 a8 3e 04 61 37 bf d7 47 be bd 94 53 c6 3e
       0.3297378 -0.7163241 -0.09291046 0.3873564
000050 09 90 34 be 28 0d af bd 5a 99 71 3e 8e 26 78 bf
       -0.1763307 -0.08547431 0.23593655 -0.9693383
000060 c9 01 3b 3f 08 d0 7b be b4 98 1e 3f c7 bb b5 3e
       0.730496 -0.24591076 0.61951756 0.35494825
000070 11 ef cd 3b 2c f5 3d be f3 02 a3 bd 12 66 cf be
       0.0062846025 -0.18550557 -0.07959547 -0.4050756
000080 65 99 2d bf 63 d0 d0 be 33 ce a7 3f a9 44 7c 3f
       -0.67812186 -0.40783986 1.3109802 0.9854227
000090 93 1e b4 be 82 49 30 be 19 63 26 3e 18 79 63 be
       -0.35179576 -0.17215541 0.1624874 -0.22214162
0000a0 98 cd 88 be ae 52 4b be 54 8a e4 3d 2a 2f b4 3b
       -0.26719356 -0.19855759 0.111591965 0.0054987865
0000b0 73 6b 5b 3f 24 5d 9d 3f aa a5 4f bc 2d 83 7c 3f
       0.8571083 1.2294049 -0.012673775 0.9863766
0000c0 cd c5 03 be 1f 1a 69 3f 1f c7 0d 3f 38 da ad 3e
       -0.12868424 0.9105548 0.5538196 0.3395555
0000d0 0b c8 1a 3f 69 50 23 3e 90 0b 8a bf 9c 19 fb bc
       0.6046149 0.15948643 -1.0784779 -0.03065186
0000e0 60 5e 2d 3c fc 96 bb 3f 9a 9c a0 bc cd 92 60 be
       0.010581583 1.4655452 -0.019605923 -0.21931
0000f0 f6 73 8a be 4e 03 42 bd 32 9f 2c 3f 8b d8 c5 3e
       -0.27041596 -0.047366433 0.6743041 0.38641772

weight f4 [64, 96]
000000 93 dd cc 3b 6f c4 02 bd 8a a9 0f be 36 fe a3 3d
       0.0062519996 -0.031925615 -0.14029518 0.08007471
000010 66 6e 73 bc 3b 23 17 bd 33 ed a3 3d 2f 0d 0d bd
       -0.014857864 -0.036898833 0.080042265 -0.0344364
000020 92 28 9e 3c 44 a3 6e bd 62 9b 42 be 81 7b 2c 3e
       0.019306455 -0.05826117 -0.19004586 0.16843988
000030 11 f0 ad 3a 51 7b 94 3c 42 af ce bd d1 c3 89 bd
       0.0013270398 0.018125208 -0.100920215 -0.06726802
000040 a4 89 b5 bd 8c 34 65 bd 29 5b 80 3d 0d 39 93 3c
       -0.088641435 -0.055958316 0.062673874 0.01797154
000050 09 36 c0 bb f3 20 88 3d f9 30 f8 3d a8 a7 6b 3d
       -0.0058658165 0.066469096 0.12118716 0.057532936
000060 f3 40 0b bd 5c 01 87 bd 5f b1 ee 3c 0a b1 de 3d
       -0.033997487 -0.06592056 0.029137312 0.10873611
000070 96 f9 9f bd 6c 2b 4d bd 7c 84 81 bb 73 c0 88 3d
       -0.078112766 -0.05009024 -0.003952561 0.06677332
000080 97 3b fa 3b 98 7d 99 3e d9 3a d5 bc fe fb d1 bd
       0.007636498 0.29978633 -0.026029037 -0.10253142
000090 a5 cf 88 3d e3 83 92 3d 92 3c 1d bd 17 fc 6e 3d
       0.0668023 0.07154062 -0.038387842 0.05834588
0000a0 7c 7f 99 3d 22 1e 5d bd 9f 8c 34 3d 68 e9 c4 bd
       0.07495019 -0.053983815 0.04407942 -0.09614831
0000b0 7b 1c c5 bc f6 42 21 3d de 75 d1 3d 67 6e 0c 3c
       -0.024061432 0.0393705 0.102275595 0.008571244
0000c0 7b 88 09 be 4b 02 91 bc 4c 62 12 be 6c 83 cb bb
       -0.1343097 -0.017701289 -0.1429531 -0.006210735
0000d0 9b 51 60 3d 42 02 ad bd b7 17 ef bd 32 dd 0c 3d
       0.054765325 -0.08447696 -0.11674445 0.034390636
0000e0 6d de b6 3e b5 44 d8 bc 82 c3 56 3b fa 6a 88 bc
       0.35716572 -0.02639995 0.003277034 -0.016652573
0000f0 75 ef 4e 3d be 07 85 bd d3 c1 29 be 6a f6 8f bd
       0.050521333 -0.06495617 -0.16577844 -0.07029422
000100 7d 09 44 3d 8f 75 f5 bc 9f 0e 9c bd 9e cf f7 bc
       0.04786061 -0.029963283 -0.07619976 -0.030250367
000110 fe c5 a0 be a6 b3 3a 3d 02 21 18 3e bf 71 af bb
       -0.31401056 0.045581482 0.14856341 -0.0053541358
000120 cd 41 44 bd ef 5f 2d be bb f6 2a bd 9d 6a 76 3d
       -0.047914315 -0.16931127 -0.041739207 0.060160268
000130 96 33 21 be 72 c8 5d bd 32 e4 3a bd 52 4e 09 3e
       -0.15742335 -0.054146238 -0.04562778 0.13408783
000140 24 7c ed 3d 87 32 d9 bc da 7c ad bd de a7 6e bd
       0.115959436 -0.026513351 -0.08471079 -0.05826556
000150 3a 20 44 3d a5 69 af bd a9 66 3f bc 49 ca 46 bd
       0.047882296 -0.08565072 -0.011682191 -0.048532758
000160 37 88 1e bc 8a ef 20 3d 76 d9 58 bc 04 40 5f 3e
       -0.009676031 0.039290942 -0.0132354405 0.21801764
000170 77 a9 c0 bd 01 fd 2f bd c5 82 bf bc f6 d3 1c bc
       -0.09407323 -0.042965893 -0.023377785 -0.00957202
000180 5d fd 98 3d a7 30 86 bb 14 b8 ed bc f9 e0 98 3c
       0.074702 -0.0040951553 -0.02901844 0.018661963
000190 7b 3a 8e bc aa 41 02 3e fb 09 4a bd 0d 88 12 bd
       -0.01736187 0.12720361 -0.049325924 -0.03577428
0001a0 21 87 b0 bd 28 ef 60 3d da bf e7 3d 86 a3 35 3c
       -0.08619524 0.054915577 0.1131589 0.01108635
0001b0 60 4d a7 3d 9d d6 4c bd d2 e7 c6 bc cf 38 df 3c
       0.08169055 -0.05000936 -0.024280462 0.027248768
0001c0 56 8a cd bd 78 ea c9 bc 4a 95 9a bd 2d 91 99 3c
       -0.10036151 -0.024647936 -0.07548006 0.018745983
0001d0 b8 6c be bc 81 a5 36 3d 73 73 b2 bd 28 6b 60 bc
       -0.0232452 0.04459143 -0.087134264 -0.013697423
0001e0 e2 a8 b9 3c 5a b2 2f bc bc 99 04 3d c3 1c 56 3d
       0.022663537 -0.010723675 0.032373175 0.052273523
0001f0 44 55 58 3d d7 0d 34 bc 4e 77 f5 3d 22 78 59 3c
       0.05281569 -0.010989628 0.11985646 0.013273271
000200 11 01 45 3c 3b 1a 8c 3d 3c 95 50 bd 8c fb c1 bd
       0.01202418 0.068409406 -0.05092357 -0.09471807
000210 5a 83 bf bc 4f cd 03 3e d2 94 c1 bd 4f b8 56 bd
       -0.023378063 0.12871288 -0.09452213 -0.052421864
000220 13 3a c0 bd 82 cc 97 3d 36 c5 38 bc d3 6f 5e 3e
       -0.09386077 0.07412054 -0.0112774875 0.21722345
000230 5c b4 45 3d a7 ad eb 3d 8b 34 d0 bd 7c c6 fe 3c
       0.048267707 0.11507731 -0.10166272 0.031100504
000240 98 17 33 3c d6 a4 dc 3c 65 a0 95 3d b7 1b 5d bc
       0.010930918 0.026934069 0.073059835 -0.013495377
000250 49 13 c8 bd 37 97 32 3d 24 f2 7c 3d b6 f2 92 bd
       -0.09769303 0.04360124 0.06175436 -0.071752
000260 9d 2f 09 be 1e 69 c1 3d 92 22 2f 37 dc 4d 60 bd
       -0.1339707 0.09443878 1.0438862e-05 -0.054761752
000270 29 92 c2 3c ef 3d 16 bd 38 aa a0 3c 4c 1b 07 bc
       0.023751335 -0.03668016 0.019612417 -0.008246254
000280 52 e2 03 be ea 24 00 3d 55 95 3f bd 80 8a b9 bd
       -0.12879303 0.031285204 -0.046773273 -0.0905962
000290 d1 93 09 be dd 6c 4e 3d 66 08 f5 3d ad 13 a8 bd
       -0.13435294 0.05039679 0.119644925 -0.08206878
0002a0 e4 da 06 3e dc 2e a7 3d 16 1d 23 3e 7a 77 9d 3d
       0.13169438 0.081632346 0.15929064 0.07688804
0002b0 81 41 33 bd f9 84 8f 3d 11 58 10 bd 34 e9 bf bc
       -0.04376364 0.070077844 -0.035240237 -0.02342663
0002c0 a8 4c 1e 3c 39 e9 b8 3d ba 83 fd bc f3 7c dc 3d
       0.009661831 0.09028859 -0.030946601 0.1076602
0002d0 dd 44 e0 3d a6 bd 64 3d 95 9b 97 bc 0d 65 93 bd
       0.10950635 0.055844925 -0.018506804 -0.07197008
0002e0 74 1b 71 3d 66 d8 f1 bd 07 fd 4e bd c3 57 c9 3d
       0.058864072 -0.11808853 -0.050534274 0.09831192
0002f0 01 cf 38 3d a1 9e b5 bd ad 12 8a 3d 6f 01 3f bd
       0.04511929 -0.08868147 0.067418434 -0.046632227
000300 a1 2b ce 3c b0 6f 9e bd 26 b7 c2 bd 79 3b 6c bd
       0.025167288 -0.077361465 -0.09507589 -0.057673905
000310 0f 9d 6c 3e 84 fa cf bd 26 36 26 be fd ae 69 be
       0.23106788 -0.10155204 -0.16231593 -0.22820659
000320 a1 bb 3f be cd ae 3f bd 84 a5 3a 3e e9 2f d8 3e
       -0.18723918 -0.046797562 0.18227202 0.42224053
000330 30 57 13 3d ae bb 24 3e 79 e5 02 be cc b3 d1 bd
       0.03597182 0.16087219 -0.1278285 -0.10239372
000340 9d 5d 86 be d8 7a 4a bd c1 ec 3d be 9a 9c d0 bd
       -0.26243296 -0.04943356 -0.18547346 -0.101861194
000350 10 59 3a bd 53 de 09 bd 10 b2 34 be 2e 26 c6 3e
       -0.045495093 -0.03365929 -0.1764605 0.38701004
000360 13 fe d8 3c ad a9 5c be 78 e0 54 be ea af 8b 3d
       0.02648834 -0.21549101 -0.20788753 0.06820662
000370 2f 1a 26 bd 39 13 44 be 18 34 47 3c a4 38 bb bd
       -0.040552314 -0.19147958 0.012158416 -0.09141663
000380 19 aa e9 3d 5c 1f 33 3f 2f e5 c2 bd 2d bc ac 3d
       0.11409397 0.69969726 -0.095163696 0.08434329
000390 76 8c 80 3c cc a4 a3 bd 58 3d dd bc a9 b8 be 3e
       0.015691977 -0.07990417 -0.02700679 0.3725026
0003a0 3e 20 b5 3d 1f 52 41 3e a3 af 8f be 66 fa 9f 3d
       0.0884404 0.18878983 -0.28063688 0.078114316
0003b0 31 59 0e bd b8 65 61 3e c7 5e a7 bc 6a 63 27 3d
       -0.03475303 0.22011459 -0.020430936 0.040866293
0003c0 76 d7 b1 3c e3 ad 50 3d d4 8a 5c be 2a 7b 94 3d
       0.021709185 0.05094708 -0.21537334 0.07250054
0003d0 af c1 bb bd 3f 8d 9f bc 89 e2 06 be 42 99 5d 3e
       -0.091678016 -0.019476531 -0.13172354 0.21640494
0003e0 3b 53 be 3e 59 dd b5 bd ec 19 ca bc 24 62 6d 3d
       0.37172875 -0.08880109 -0.024670564 0.057954922
0003f0 22 28 cf bd e0 67 83 3e 23 1e a6 3d e1 bc 33 be
       -0.101150766 0.25665188 0.08111217 -0.1755252

bias f4 [64]
000000 66 94 66 3d 4b 28 01 3e a0 d3 1b 3d b0 10 d4 3d
       0.056293868 0.12613027 0.03804362 0.103547454
000010 ee 5b 47 bc 84 bd 99 bb 84 43 de b9 60 e6 e7 bd
       -0.012167914 -0.0046917815 -0.00042393443 -0.113232374
000020 ca 3c f5 bb 4f 1d c5 bd 94 f1 2a 3e 80 15 e8 bc
       -0.0074840533 -0.09624731 0.16693717 -0.028330564
000030 02 f3 4d 3d e1 ec 1a 3d e4 90 a4 bc de 38 7c bd
       0.05028058 0.03782356 -0.02008862 -0.06157767
000040 d3 a6 e3 bd 9d 6e 8d 3d 5e a8 cc 3d 0a 82 de bd
       -0.111158036 0.069058634 0.09993051 -0.10864647
000050 3f 65 0e 3d a4 ec a4 3d 48 e7 a6 3c 07 38 ce 3c
       0.034764525 0.08052948 0.020373955 0.0251732
000060 28 f5 7f bd 56 eb 63 3d 7a ed 2c 3c 44 bf bc 3d
       -0.06248966 0.055644356 0.010554666 0.092161685
000070 35 73 a7 bd e6 e9 85 3d 2a 62 61 bd bb cd 24 bb
       -0.08176271 0.06538753 -0.055025257 -0.002514704
000080 7e e4 3e bd e9 18 02 3e 87 6f 08 be 7e f6 73 3c
       -0.046604626 0.12704815 -0.13323794 0.014890311
000090 24 fd 66 bd ab 2c a6 3c 54 e8 c6 b8 5d 19 96 3d
       -0.056393757 0.020284971 -9.48465e-05 0.073290564
0000a0 0a 8d d2 3d 90 e8 5a 3c 89 fd b5 3d b9 0b b7 3d
       0.10280807 0.013361111 0.088862486 0.08937783
0000b0 ec b8 b1 bc f6 a1 cc 3d 63 a0 5f 3d 57 46 0d 3d
       -0.021694623 0.09991829 0.054596316 0.03449091
0000c0 71 cf b9 3d 84 f9 b7 bd c9 35 6a 3d 39 39 98 3d
       0.090727694 -0.08983138 0.0571802 0.07432789
0000d0 6d fa fc bc 6a 62 d7 3d 0e 96 8e bd 24 f4 6b bd
       -0.030881131 0.10516818 -0.069622144 -0.057605878
0000e0 7c 81 96 3b 57 cf 2f 3d 38 83 3f 3c 7d 45 75 bd
       0.0045930725 0.042922344 0.011689 -0.059880722
0000f0 ae a6 a8 bd f1 c7 3d bd 36 f1 ac 3b 65 ac 58 3c
       -0.082349166 -0.046333257 0.005277778 0.013224696
